…
===============================================\n"," input_11 (InputLayer)          [(None, 256, 256, 3  0           []                               \n","                                )]                                                                \n","                                                                                                  \n"," patches_11 (Patches)           (None, None, 768)    0           ['input_11[0][0]']               \n","                                                                                                  \n"," patch_encoder_10 (PatchEncoder  (None, 256, 64)     65600       ['patches_11[0][0]']             \n"," )                                                                                                \n","                                                                                                  \n"," layer_normalization_90 (LayerN  (None, 256, 64)     128         ['patch_encoder_10[0][0]']       \n"," ormalization)                                                                                    \n","                                                                                                  \n"," multi_head_attention_40 (Multi  (None, 256, 64)     66368       ['layer_normalization_90[0][0]', \n"," HeadAttention)                                                   'layer_normalization_90[0][0]'] \n","                                                                                                  \n"," add_80 (Add)                   (None, 256, 64)      0           ['multi_head_attention_40[0][0]',\n","                                                                  'patch_encoder_10[0][0]']       \n","                                                                                                  \n"," layer_normalization_91 (LayerN  (None, 256, 64)     128         ['add_80[0][0]']                 \n"," ormalization)                                                                                    \n","                                                                                                  \n"," dense_151 (Dense)              (None, 256, 128)     8320        ['layer_normalization_91[0][0]'] \n","                                                                                                  \n"," dropout_140 (Dropout)          (None, 256, 128)     0           ['dense_151[0][0]']              \n","                                                                                                  \n"," dense_152 (Dense)              (None, 256, 64)      8256        ['dropout_140[0][0]']            \n","                                                                                                  \n"," dropout_141 (Dropout)          (None, 256, 64)      0           ['dense_152[0][0]']              \n","                                                                                                  \n"," add_81 (Add)                   (None, 256, 64)      0           ['dropout_141[0][0]',            \n","                                                                  'add_80[0][0]']                 \n","                                                                                                  \n"," layer_normalization_92 (LayerN  (None, 256, 64)     128         ['add_81[0][0]']                 \n"," ormalization)                                                                                    \n","                                                                                                  \n"," multi_head_attention_41 (Multi  (None, 256, 64)     66368       ['layer_normalization_92[0][0]', \n"," HeadAttention)                                                   'layer_normalization_92[0][0]'] \n","                                                                                                  \n"," add_82 (Add)                   (None, 256, 64)      0           ['multi_head_attention_41[0][0]',\n","                                                                  'add_81[0][0]']                 \n","                                                                                                  \n"," layer_normalization_93 (LayerN  (None, 256, 64)     128         ['add_82[0][0]']                 \n"," ormalization)                                                                                    \n","                                                                                                  \n"," dense_153 (Dense)              (None, 256, 128)     8320        ['layer_normalization_93[0][0]'] \n","                                                                                                  \n"," dropout_142 (Dropout)          (None, 256, 128)     0           ['dense_153[0][0]']              \n","                                                                                                  \n"," dense_154 (Dense)              (None, 256, 64)      8256        ['dropout_142[0][0]']            \n","                                                                                                  \n"," dropout_143 (Dropout)          (None, 256, 64)      0           ['dense_154[0][0]']              \n","                                                                                                  \n"," add_83 (Add)                   (None, 256, 64)      0           ['dropout_143[0][0]',            \n","                                                                  'add_82[0][0]']                 \n","                                                                                                  \n"," layer_normalization_94 (LayerN  (None, 256, 64)     128         ['add_83[0][0]']                 \n"," ormalization)                                                                                    \n","                                                                                                  \n"," multi_head_attention_42 (Multi  (None, 256, 64)     66368       ['layer_normalization_94[0][0]', \n"," HeadAttention)                                                   'layer_normalization_94[0][0]'] \n","                                                                                                  \n"," add_84 (Add)                   (None, 256, 64)      0           ['multi_head_attention_42[0][0]',\n","                                                                  'add_83[0][0]']                 \n","                                                                                                  \n"," layer_normalization_95 (LayerN  (None, 256, 64)     128         ['add_84[0][0]']                 \n"," ormalization)                                                                                    \n","                                                                                                  \n"," dense_155 (Dense)              (None, 256, 128)     8320        ['layer_normalization_95[0][0]'] \n","                                                                                                  \n"," dropout_144 (Dropout)          (None, 256, 128)     0           ['dense_155[0][0]']              \n","                                                                                                  \n"," dense_156 (Dense)              (None, 256, 64)      8256        ['dropout_144[0][0]']            \n","                                                                                                  \n"," dropout_145 (Dropout)          (None, 256, 64)      0           ['dense_156[0][0]']              \n","                                                                                                  \n"," add_85 (Add)                   (None, 256, 64)      0           ['dropout_145[0][0]',            \n","                                                                  'add_84[0][0]']                 \n","                                                                                                  \n"," layer_normalization_96 (LayerN  (None, 256, 64)     128         ['add_85[0][0]']                 \n"," ormalization)                                                                                    \n","                                                                                                  \n"," multi_head_attention_43 (Multi  (None, 256, 64)     66368       ['layer_normalization_96[0][0]', \n"," HeadAttention)                                                   'layer_normalization_96[0][0]'] \n","                                                                                                  \n"," add_86 (Add)                   (None, 256, 64)      0           ['multi_head_attention_43[0][0]',\n","                                                                  'add_85[0][0]']                 \n","                                                                                                  \n"," layer_normalization_97 (LayerN  (None, 256, 64)     128         ['add_86[0][0]']                 \n"," ormalization)                                                                                    \n","                                                                                                  \n"," dense_157 (Dense)              (None, 256, 128)     8320        ['layer_normalization_97[0][0]'] \n","                                                                                                  \n"," dropout_146 (Dropout)          (None, 256, 128)     0           ['dense_157[0][0]']              \n","                                                                                                  \n"," dense_158 (Dense)              (None, 256, 64)      8256        ['dropout_146[0][0]']            \n","                                                                                                  \n"," dropout_147 (Dropout)          (None, 256, 64)      0           ['dense_158[0][0]']              \n","                                                                                                  \n"," add_87 (Add)                   (None, 256, 64)      0           ['dropout_147[0][0]',            \n","                                                                  'add_86[0][0]']                 \n","                                                                                                  \n"," layer_normalization_98 (LayerN  (None, 256, 64)     128         ['add_87[0][0]']                 \n"," ormalization)                                                                                    \n","                                                                                                  \n"," flatten_10 (Flatten)           (None, 16384)        0           ['layer_normalization_98[0][0]'] \n","                                                                                                  \n"," dropout_148 (Dropout)          (None, 16384)        0           ['flatten_10[0][0]']             \n","                                                                                                  \n"," dense_159 (Dense)              (None, 2048)         33556480    ['dropout_148[0][0]']            \n","                                                                                                  \n"," dropout_149 (Dropout)          (None, 2048)         0           ['dense_159[0][0]']              \n","                                                                                                  \n"," dense_160 (Dense)              (None, 1024)         2098176     ['dropout_149[0][0]']            \n","                                                                                                  \n"," dropout_150 (Dropout)          (None, 1024)         0           ['dense_160[0][0]']              \n","                                                                                                  \n"," dense_161 (Dense)              (None, 512)          524800      ['dropout_150[0][0]']            \n","                                                                                                  \n"," dropout_151 (Dropout)          (None, 512)          0           ['dense_161[0][0]']              \n","                                                                                                  \n"," dense_162 (Dense)              (None, 64)           32832       ['dropout_151[0][0]']            \n","                                                                                                  \n"," dropout_152 (Dropout)          (None, 64)           0           ['dense_162[0][0]']              \n","                                                                                                  \n"," dense_163 (Dense)              (None, 32)           2080        ['dropout_152[0][0]']            \n","                                                                                                  \n"," dropout_153 (Dropout)          (None, 32)           0           ['dense_163[0][0]']              \n","                                                                                                  \n"," dense_164 (Dense)              (None, 1)            33          ['dropout_153[0][0]']            \n","                                                                                                  \n","==================================================================================================\n","Total params: 36,612,929\n","Trainable params: 36,612,929\n","Non-trainable params: 0\n","________________________________________________________
…
