…
================================================\n"," input_1 (InputLayer)           [(None, 256, 256, 3  0           []                               \n","                                )]                                                                \n","                                                                                                  \n"," patches (Patches)              (None, None, 768)    0           ['input_1[0][0]']                \n","                                                                                                  \n"," patch_encoder (PatchEncoder)   (None, 256, 64)      65600       ['patches[0][0]']                \n","                                                                                                  \n"," layer_normalization (LayerNorm  (None, 256, 64)     128         ['patch_encoder[0][0]']          \n"," alization)                                                                                       \n","                                                                                                  \n"," multi_head_attention (MultiHea  (None, 256, 64)     66368       ['layer_normalization[0][0]',    \n"," dAttention)                                                      'layer_normalization[0][0]']    \n","                                                                                                  \n"," add (Add)                      (None, 256, 64)      0           ['multi_head_attention[0][0]',   \n","                                                                  'patch_encoder[0][0]']          \n","                                                                                                  \n"," layer_normalization_1 (LayerNo  (None, 256, 64)     128         ['add[0][0]']                    \n"," rmalization)                                                                                     \n","                                                                                                  \n"," dense_1 (Dense)                (None, 256, 128)     8320        ['layer_normalization_1[0][0]']  \n","                                                                                                  \n"," dropout (Dropout)              (None, 256, 128)     0           ['dense_1[0][0]']                \n","                                                                                                  \n"," dense_2 (Dense)                (None, 256, 64)      8256        ['dropout[0][0]']                \n","                                                                                                  \n"," dropout_1 (Dropout)            (None, 256, 64)      0           ['dense_2[0][0]']                \n","                                                                                                  \n"," add_1 (Add)                    (None, 256, 64)      0           ['dropout_1[0][0]',              \n","                                                                  'add[0][0]']                    \n","                                                                                                  \n"," layer_normalization_2 (LayerNo  (None, 256, 64)     128         ['add_1[0][0]']                  \n"," rmalization)                                                                                     \n","                                                                                                  \n"," multi_head_attention_1 (MultiH  (None, 256, 64)     66368       ['layer_normalization_2[0][0]',  \n"," eadAttention)                                                    'layer_normalization_2[0][0]']  \n","                                                                                                  \n"," add_2 (Add)                    (None, 256, 64)      0           ['multi_head_attention_1[0][0]', \n","                                                                  'add_1[0][0]']                  \n","                                                                                                  \n"," layer_normalization_3 (LayerNo  (None, 256, 64)     128         ['add_2[0][0]']                  \n"," rmalization)                                                                                     \n","                                                                                                  \n"," dense_3 (Dense)                (None, 256, 128)     8320        ['layer_normalization_3[0][0]']  \n","                                                                                                  \n"," dropout_2 (Dropout)            (None, 256, 128)     0           ['dense_3[0][0]']                \n","                                                                                                  \n"," dense_4 (Dense)                (None, 256, 64)      8256        ['dropout_2[0][0]']              \n","                                                                                                  \n"," dropout_3 (Dropout)            (None, 256, 64)      0           ['dense_4[0][0]']                \n","                                                                                                  \n"," add_3 (Add)                    (None, 256, 64)      0           ['dropout_3[0][0]',              \n","                                                                  'add_2[0][0]']                  \n","                                                                                                  \n"," layer_normalization_4 (LayerNo  (None, 256, 64)     128         ['add_3[0][0]']                  \n"," rmalization)                                                                                     \n","                                                                                                  \n"," multi_head_attention_2 (MultiH  (None, 256, 64)     66368       ['layer_normalization_4[0][0]',  \n"," eadAttention)                                                    'layer_normalization_4[0][0]']  \n","                                                                                                  \n"," add_4 (Add)                    (None, 256, 64)      0           ['multi_head_attention_2[0][0]', \n","                                                                  'add_3[0][0]']                  \n","                                                                                                  \n"," layer_normalization_5 (LayerNo  (None, 256, 64)     128         ['add_4[0][0]']                  \n"," rmalization)                                                                                     \n","                                                                                                  \n"," dense_5 (Dense)                (None, 256, 128)     8320        ['layer_normalization_5[0][0]']  \n","                                                                                                  \n"," dropout_4 (Dropout)            (None, 256, 128)     0           ['dense_5[0][0]']                \n","                                                                                                  \n"," dense_6 (Dense)                (None, 256, 64)      8256        ['dropout_4[0][0]']              \n","                                                                                                  \n"," dropout_5 (Dropout)            (None, 256, 64)      0           ['dense_6[0][0]']                \n","                                                                                                  \n"," add_5 (Add)                    (None, 256, 64)      0           ['dropout_5[0][0]',              \n","                                                                  'add_4[0][0]']                  \n","                                                                                                  \n"," layer_normalization_6 (LayerNo  (None, 256, 64)     128         ['add_5[0][0]']                  \n"," rmalization)                                                                                     \n","                                                                                                  \n"," multi_head_attention_3 (MultiH  (None, 256, 64)     66368       ['layer_normalization_6[0][0]',  \n"," eadAttention)                                                    'layer_normalization_6[0][0]']  \n","                                                                                                  \n"," add_6 (Add)                    (None, 256, 64)      0           ['multi_head_attention_3[0][0]', \n","                                                                  'add_5[0][0]']                  \n","                                                                                                  \n"," layer_normalization_7 (LayerNo  (None, 256, 64)     128         ['add_6[0][0]']                  \n"," rmalization)                                                                                     \n","                                                                                                  \n"," dense_7 (Dense)                (None, 256, 128)     8320        ['layer_normalization_7[0][0]']  \n","                                                                                                  \n"," dropout_6 (Dropout)            (None, 256, 128)     0           ['dense_7[0][0]']                \n","                                                                                                  \n"," dense_8 (Dense)                (None, 256, 64)      8256        ['dropout_6[0][0]']              \n","                                                                                                  \n"," dropout_7 (Dropout)            (None, 256, 64)      0           ['dense_8[0][0]']                \n","                                                                                                  \n"," add_7 (Add)                    (None, 256, 64)      0           ['dropout_7[0][0]',              \n","                                                                  'add_6[0][0]']                  \n","                                                                                                  \n"," layer_normalization_8 (LayerNo  (None, 256, 64)     128         ['add_7[0][0]']                  \n"," rmalization)                                                                                     \n","                                                                                                  \n"," flatten (Flatten)              (None, 16384)        0           ['layer_normalization_8[0][0]']  \n","                                                                                                  \n"," dropout_8 (Dropout)            (None, 16384)        0           ['flatten[0][0]']                \n","                                                                                                  \n"," dense_9 (Dense)                (None, 2048)         33556480    ['dropout_8[0][0]']              \n","                                                                                                  \n"," dropout_9 (Dropout)            (None, 2048)         0           ['dense_9[0][0]']                \n","                                                                                                  \n"," dense_10 (Dense)               (None, 1024)         2098176     ['dropout_9[0][0]']              \n","                                                                                                  \n"," dropout_10 (Dropout)           (None, 1024)         0           ['dense_10[0][0]']               \n","                                                                                                  \n"," dense_11 (Dense)               (None, 512)          524800      ['dropout_10[0][0]']             \n","                                                                                                  \n"," dropout_11 (Dropout)           (None, 512)          0           ['dense_11[0][0]']               \n","                                                                                                  \n"," dense_12 (Dense)               (None, 64)           32832       ['dropout_11[0][0]']             \n","                                                                                                  \n"," dropout_12 (Dropout)           (None, 64)           0           ['dense_12[0][0]']               \n","                                                                                                  \n"," dense_13 (Dense)               (None, 32)           2080        ['dropout_12[0][0]']             \n","                                                                                                  \n"," dropout_13 (Dropout)           (None, 32)           0           ['dense_13[0][0]']               \n","                                                                                                  \n"," dense_14 (Dense)               (None, 1)            33          ['dropout_13[0][0]']             \n","                                                                                                  \n","==================================================================================================\n","Total params: 36,612,929\n","Trainable params: 36,612,929\n","Non-trainable params: 0\n","________________________________________________________
…
