…
================================================\n"," input_1 (InputLayer)           [(None, 256, 256, 3  0           []                               \n","                                )]                                                                \n","                                                                                                  \n"," patches (Patches)              (None, None, 768)    0           ['input_1[0][0]']                \n","                                                                                                  \n"," patch_encoder (PatchEncoder)   (None, 256, 64)      65600       ['patches[0][0]']                \n","                                                                                                  \n"," layer_normalization (LayerNorm  (None, 256, 64)     128         ['patch_encoder[0][0]']          \n"," alization)                                                                                       \n","                                                                                                  \n"," multi_head_attention (MultiHea  (None, 256, 64)     66368       ['layer_normalization[0][0]',    \n"," dAttention)                                                      'layer_normalization[0][0]']    \n","                                                                                                  \n"," add (Add)                      (None, 256, 64)      0           ['multi_head_attention[0][0]',   \n","                                                                  'patch_encoder[0][0]']          \n","                                                                                                  \n"," layer_normalization_1 (LayerNo  (None, 256, 64)     128         ['add[0][0]']                    \n"," rmalization)                                                                                     \n","                                                                                                  \n"," dense_1 (Dense)                (None, 256, 128)     8320        ['layer_normalization_1[0][0]']  \n","                                                                                                  \n"," dropout (Dropout)              (None, 256, 128)     0           ['dense_1[0][0]']                \n","                                                                                                  \n"," dense_2 (Dense)                (None, 256, 64)      8256        ['dropout[0][0]']                \n","                                                                                                  \n"," dropout_1 (Dropout)            (None, 256, 64)      0           ['dense_2[0][0]']                \n","                                                                                                  \n"," add_1 (Add)                    (None, 256, 64)      0           ['dropout_1[0][0]',              \n","                                                                  'add[0][0]']                    \n","                                                                                                  \n"," layer_normalization_2 (LayerNo  (None, 256, 64)     128         ['add_1[0][0]']                  \n"," rmalization)                                                                                     \n","                                                                                                  \n"," multi_head_attention_1 (MultiH  (None, 256, 64)     66368       ['layer_normalization_2[0][0]',  \n"," eadAttention)                                                    'layer_normalization_2[0][0]']  \n","                                                                                                  \n"," add_2 (Add)                    (None, 256, 64)      0           ['multi_head_attention_1[0][0]', \n","                                                                  'add_1[0][0]']                  \n","                                                                                                  \n"," layer_normalization_3 (LayerNo  (None, 256, 64)     128         ['add_2[0][0]']                  \n"," rmalization)                                                                                     \n","                                                                                                  \n"," dense_3 (Dense)                (None, 256, 128)     8320        ['layer_normalization_3[0][0]']  \n","                                                                                                  \n"," dropout_2 (Dropout)            (None, 256, 128)     0           ['dense_3[0][0]']                \n","                                                                                                  \n"," dense_4 (Dense)                (None, 256, 64)      8256        ['dropout_2[0][0]']              \n","                                                                                                  \n"," dropout_3 (Dropout)            (None, 256, 64)      0           ['dense_4[0][0]']                \n","                                                                                                  \n"," add_3 (Add)                    (None, 256, 64)      0           ['dropout_3[0][0]',              \n","                                                                  'add_2[0][0]']                  \n","                                                                                                  \n"," layer_normalization_4 (LayerNo  (None, 256, 64)     128         ['add_3[0][0]']                  \n"," rmalization)                                                                                     \n","                                                                                                  \n"," multi_head_attention_2 (MultiH  (None, 256, 64)     66368       ['layer_normalization_4[0][0]',  \n"," eadAttention)                                                    'layer_normalization_4[0][0]']  \n","                                                                                                  \n"," add_4 (Add)                    (None, 256, 64)      0           ['multi_head_attention_2[0][0]', \n","                                                                  'add_3[0][0]']                  \n","                                                                                                  \n"," layer_normalization_5 (LayerNo  (None, 256, 64)     128         ['add_4[0][0]']                  \n"," rmalization)                                                                                     \n","                                                                                                  \n"," dense_5 (Dense)                (None, 256, 128)     8320        ['layer_normalization_5[0][0]']  \n","                                                                                                  \n"," dropout_4 (Dropout)            (None, 256, 128)     0           ['dense_5[0][0]']                \n","                                                                                                  \n"," dense_6 (Dense)                (None, 256, 64)      8256        ['dropout_4[0][0]']              \n","                                                                                                  \n"," dropout_5 (Dropout)            (None, 256, 64)      0           ['dense_6[0][0]']                \n","                                                                                                  \n"," add_5 (Add)                    (None, 256, 64)      0           ['dropout_5[0][0]',              \n","                                                                  'add_4[0][0]']                  \n","                                                                                                  \n"," layer_normalization_6 (LayerNo  (None, 256, 64)     128         ['add_5[0][0]']                  \n"," rmalization)                                                                                     \n","                                                                                                  \n"," multi_head_attention_3 (MultiH  (None, 256, 64)     66368       ['layer_normalization_6[0][0]',  \n"," eadAttention)                                                    'layer_normalization_6[0][0]']  \n","                                                                                                  \n"," add_6 (Add)                    (None, 256, 64)      0           ['multi_head_attention_3[0][0]', \n","                                                                  'add_5[0][0]']                  \n","                                                                                                  \n"," layer_normalization_7 (LayerNo  (None, 256, 64)     128         ['add_6[0][0]']                  \n"," rmalization)                                                                                     \n","                                                                                                  \n"," dense_7 (Dense)                (None, 256, 128)     8320        ['layer_normalization_7[0][0]']  \n","                                                                                                  \n"," dropout_6 (Dropout)            (None, 256, 128)     0           ['dense_7[0][0]']                \n","                                                                                                  \n"," dense_8 (Dense)                (None, 256, 64)      8256        ['dropout_6[0][0]']              \n","                                                                                                  \n"," dropout_7 (Dropout)            (None, 256, 64)      0           ['dense_8[0][0]']                \n","                                                                                                  \n"," add_7 (Add)                    (None, 256, 64)      0           ['dropout_7[0][0]',              \n","                                                                  'add_6[0][0]']                  \n","                                                                                                  \n"," layer_normalization_8 (LayerNo  (None, 256, 64)     128         ['add_7[0][0]']                  \n"," rmalization)                                                                                     \n","                                                                                                  \n"," flatten (Flatten)              (None, 16384)        0           ['layer_normalization_8[0][0]']  \n","                                                                                                  \n"," dropout_8 (Dropout)            (None, 16384)        0           ['flatten[0][0]']                \n","                                                                                                  \n"," dense_9 (Dense)                (None, 2048)         33556480    ['dropout_8[0][0]']              \n","                                                                                                  \n"," dropout_9 (Dropout)            (None, 2048)         0           ['dense_9[0][0]']                \n","                                                                                                  \n"," dense_10 (Dense)               (None, 1024)         2098176     ['dropout_9[0][0]']              \n","                                                                                                  \n"," dropout_10 (Dropout)           (None, 1024)         0           ['dense_10[0][0]']               \n","                                                                                                  \n"," dense_11 (Dense)               (None, 512)          524800      ['dropout_10[0][0]']             \n","                                                                                                  \n"," dropout_11 (Dropout)           (None, 512)          0           ['dense_11[0][0]']               \n","                                                                                                  \n"," dense_12 (Dense)               (None, 64)           32832       ['dropout_11[0][0]']             \n","                                                                                                  \n"," dropout_12 (Dropout)           (None, 64)           0           ['dense_12[0][0]']               \n","                                                                                                  \n"," dense_13 (Dense)               (None, 32)           2080        ['dropout_12[0][0]']             \n","                                                                                                  \n"," dropout_13 (Dropout)           (None, 32)           0           ['dense_13[0][0]']               \n","                                                                                                  \n"," dense_14 (Dense)               (None, 1)            33          ['dropout_13[0][0]']             \n","                                                                                                  \n","==================================================================================================\n","Total params: 36,612,929\n","Trainable params: 36,612,929\n","Non-trainable params: 0\n","________________________________________________________
…
===============================================\n"," input_5 (InputLayer)           [(None, 256, 256, 3  0           []                               \n","                                )]                                                                \n","                                                                                                  \n"," patches_5 (Patches)            (None, None, 768)    0           ['input_5[0][0]']                \n","                                                                                                  \n"," patch_encoder_4 (PatchEncoder)  (None, 256, 64)     65600       ['patches_5[0][0]']              \n","                                                                                                  \n"," layer_normalization_36 (LayerN  (None, 256, 64)     128         ['patch_encoder_4[0][0]']        \n"," ormalization)                                                                                    \n","                                                                                                  \n"," multi_head_attention_16 (Multi  (None, 256, 64)     66368       ['layer_normalization_36[0][0]', \n"," HeadAttention)                                                   'layer_normalization_36[0][0]'] \n","                                                                                                  \n"," add_32 (Add)                   (None, 256, 64)      0           ['multi_head_attention_16[0][0]',\n","                                                                  'patch_encoder_4[0][0]']        \n","                                                                                                  \n"," layer_normalization_37 (LayerN  (None, 256, 64)     128         ['add_32[0][0]']                 \n"," ormalization)                                                                                    \n","                                                                                                  \n"," dense_61 (Dense)               (None, 256, 128)     8320        ['layer_normalization_37[0][0]'] \n","                                                                                                  \n"," dropout_56 (Dropout)           (None, 256, 128)     0           ['dense_61[0][0]']               \n","                                                                                                  \n"," dense_62 (Dense)               (None, 256, 64)      8256        ['dropout_56[0][0]']             \n","                                                                                                  \n"," dropout_57 (Dropout)           (None, 256, 64)      0           ['dense_62[0][0]']               \n","                                                                                                  \n"," add_33 (Add)                   (None, 256, 64)      0           ['dropout_57[0][0]',             \n","                                                                  'add_32[0][0]']                 \n","                                                                                                  \n"," layer_normalization_38 (LayerN  (None, 256, 64)     128         ['add_33[0][0]']                 \n"," ormalization)                                                                                    \n","                                                                                                  \n"," multi_head_attention_17 (Multi  (None, 256, 64)     66368       ['layer_normalization_38[0][0]', \n"," HeadAttention)                                                   'layer_normalization_38[0][0]'] \n","                                                                                                  \n"," add_34 (Add)                   (None, 256, 64)      0           ['multi_head_attention_17[0][0]',\n","                                                                  'add_33[0][0]']                 \n","                                                                                                  \n"," layer_normalization_39 (LayerN  (None, 256, 64)     128         ['add_34[0][0]']                 \n"," ormalization)                                                                                    \n","                                                                                                  \n"," dense_63 (Dense)               (None, 256, 128)     8320        ['layer_normalization_39[0][0]'] \n","                                                                                                  \n"," dropout_58 (Dropout)           (None, 256, 128)     0           ['dense_63[0][0]']               \n","                                                                                                  \n"," dense_64 (Dense)               (None, 256, 64)      8256        ['dropout_58[0][0]']             \n","                                                                                                  \n"," dropout_59 (Dropout)           (None, 256, 64)      0           ['dense_64[0][0]']               \n","                                                                                                  \n"," add_35 (Add)                   (None, 256, 64)      0           ['dropout_59[0][0]',             \n","                                                                  'add_34[0][0]']                 \n","                                                                                                  \n"," layer_normalization_40 (LayerN  (None, 256, 64)     128         ['add_35[0][0]']                 \n"," ormalization)                                                                                    \n","                                                                                                  \n"," multi_head_attention_18 (Multi  (None, 256, 64)     66368       ['layer_normalization_40[0][0]', \n"," HeadAttention)                                                   'layer_normalization_40[0][0]'] \n","                                                                                                  \n"," add_36 (Add)                   (None, 256, 64)      0           ['multi_head_attention_18[0][0]',\n","                                                                  'add_35[0][0]']                 \n","                                                                                                  \n"," layer_normalization_41 (LayerN  (None, 256, 64)     128         ['add_36[0][0]']                 \n"," ormalization)                                                                                    \n","                                                                                                  \n"," dense_65 (Dense)               (None, 256, 128)     8320        ['layer_normalization_41[0][0]'] \n","                                                                                                  \n"," dropout_60 (Dropout)           (None, 256, 128)     0           ['dense_65[0][0]']               \n","                                                                                                  \n"," dense_66 (Dense)               (None, 256, 64)      8256        ['dropout_60[0][0]']             \n","                                                                                                  \n"," dropout_61 (Dropout)           (None, 256, 64)      0           ['dense_66[0][0]']               \n","                                                                                                  \n"," add_37 (Add)                   (None, 256, 64)      0           ['dropout_61[0][0]',             \n","                                                                  'add_36[0][0]']                 \n","                                                                                                  \n"," layer_normalization_42 (LayerN  (None, 256, 64)     128         ['add_37[0][0]']                 \n"," ormalization)                                                                                    \n","                                                                                                  \n"," multi_head_attention_19 (Multi  (None, 256, 64)     66368       ['layer_normalization_42[0][0]', \n"," HeadAttention)                                                   'layer_normalization_42[0][0]'] \n","                                                                                                  \n"," add_38 (Add)                   (None, 256, 64)      0           ['multi_head_attention_19[0][0]',\n","                                                                  'add_37[0][0]']                 \n","                                                                                                  \n"," layer_normalization_43 (LayerN  (None, 256, 64)     128         ['add_38[0][0]']                 \n"," ormalization)                                                                                    \n","                                                                                                  \n"," dense_67 (Dense)               (None, 256, 128)     8320        ['layer_normalization_43[0][0]'] \n","                                                                                                  \n"," dropout_62 (Dropout)           (None, 256, 128)     0           ['dense_67[0][0]']               \n","                                                                                                  \n"," dense_68 (Dense)               (None, 256, 64)      8256        ['dropout_62[0][0]']             \n","                                                                                                  \n"," dropout_63 (Dropout)           (None, 256, 64)      0           ['dense_68[0][0]']               \n","                                                                                                  \n"," add_39 (Add)                   (None, 256, 64)      0           ['dropout_63[0][0]',             \n","                                                                  'add_38[0][0]']                 \n","                                                                                                  \n"," layer_normalization_44 (LayerN  (None, 256, 64)     128         ['add_39[0][0]']                 \n"," ormalization)                                                                                    \n","                                                                                                  \n"," flatten_4 (Flatten)            (None, 16384)        0           ['layer_normalization_44[0][0]'] \n","                                                                                                  \n"," dropout_64 (Dropout)           (None, 16384)        0           ['flatten_4[0][0]']              \n","                                                                                                  \n"," dense_69 (Dense)               (None, 2048)         33556480    ['dropout_64[0][0]']             \n","                                                                                                  \n"," dropout_65 (Dropout)           (None, 2048)         0           ['dense_69[0][0]']               \n","                                                                                                  \n"," dense_70 (Dense)               (None, 1024)         2098176     ['dropout_65[0][0]']             \n","                                                                                                  \n"," dropout_66 (Dropout)           (None, 1024)         0           ['dense_70[0][0]']               \n","                                                                                                  \n"," dense_71 (Dense)               (None, 512)          524800      ['dropout_66[0][0]']             \n","                                                                                                  \n"," dropout_67 (Dropout)           (None, 512)          0           ['dense_71[0][0]']               \n","                                                                                                  \n"," dense_72 (Dense)               (None, 64)           32832       ['dropout_67[0][0]']             \n","                                                                                                  \n"," dropout_68 (Dropout)           (None, 64)           0           ['dense_72[0][0]']               \n","                                                                                                  \n"," dense_73 (Dense)               (None, 32)           2080        ['dropout_68[0][0]']             \n","                                                                                                  \n"," dropout_69 (Dropout)           (None, 32)           0           ['dense_73[0][0]']               \n","                                                                                                  \n"," dense_74 (Dense)               (None, 5)            165         ['dropout_69[0][0]']             \n","                                                                                                  \n","==================================================================================================\n","Total params: 36,613,061\n","Trainable params: 36,613,061\n","Non-trainable params: 0\n","_________________________________________________________
…
